…
 1011        0   97.946   4737.09        255         0
 1012        0  100.109   4770.65        255         0
 1013        0   98.7091  4766.66        255         0
 1014        0   97.5146  4678.41        255         0
 1015        0  101.112   4754.08        255         0
 1016        0  103.737   4807.81        255         0
------------------------------------
Model Summary
_________________________________________________________________
Layer (type)                 Output Shape              Param #   
=================================================================
block1_conv1 (Conv2D)        (None, 288, 384, 64)      1792      
_________________________________________________________________
block1_conv2 (Conv2D)        (None, 288, 384, 64)      36928     
_________________________________________________________________
block1_pool (MaxPooling2D)   (None, 144, 192, 64)      0         
_________________________________________________________________
block2_conv1 (Conv2D)        (None, 144, 192, 128)     73856     
_________________________________________________________________
block2_conv2 (Conv2D)        (None, 144, 192, 128)     147584    
_________________________________________________________________
block2_pool (MaxPooling2D)   (None, 72, 96, 128)       0         
_________________________________________________________________
block3_conv1 (Conv2D)        (None, 72, 96, 256)       295168    
_________________________________________________________________
block3_conv2 (Conv2D)        (None, 72, 96, 256)       590080    
_________________________________________________________________
block3_conv3 (Conv2D)        (None, 72, 96, 256)       590080    
_________________________________________________________________
block3_pool (MaxPooling2D)   (None, 36, 48, 256)       0         
_________________________________________________________________
block4_conv1 (Conv2D)        (None, 36, 48, 512)       1180160   
_________________________________________________________________
block4_conv2 (Conv2D)        (None, 36, 48, 512)       2359808   
_________________________________________________________________
block4_conv3 (Conv2D)        (None, 36, 48, 512)       2359808   
_________________________________________________________________
block4_pool (MaxPooling2D)   (None, 18, 24, 512)       0         
_________________________________________________________________
block5_conv1 (Conv2D)        (None, 18, 24, 512)       2359808   
_________________________________________________________________
block5_conv2 (Conv2D)        (None, 18, 24, 512)       2359808   
_________________________________________________________________
block5_conv3 (Conv2D)        (None, 18, 24, 512)       2359808   
_________________________________________________________________
block5_pool (MaxPooling2D)   (None, 9, 12, 512)        0         
_________________________________________________________________
flatten (Flatten)            (None, 55296)             0         
_________________________________________________________________
dense_1 (Dense)              (None, 1000)              55297000  
_________________________________________________________________
dense_2 (Dense)              (None, 1)                 1001      
=================================================================
Total params: 70,012,689
Trainable params: 55,298,001
Non-trainable params: 14,714,688
_________________________________________________________________
Decode model
-----------------------------------------------------------------
All predictions:
---------------------------
Pred: 1.0 Label: 1 Index: 186
Pred: 1.9678691e-17 Label: 0 Index: 587
…
