…
2018-06-17 00:10:07.805953: W tensorflow/core/common_runtime/bfc_allocator.cc:279] ****_*****************************************************__________________________________________
2018-06-17 00:10:07.806013: W tensorflow/core/framework/op_kernel.cc:1318] OP_REQUIRES failed at conv_ops.cc:673 : Resource exhausted: OOM when allocating tensor with shape[32,64,576,768] and type float on /job:localhost/replica:0/task:0/device:GPU:0 by allocator GPU_0_bfc

------------------------------------
Model Summary
_________________________________________________________________
Layer (type)                 Output Shape              Param #   
=================================================================
block1_conv1 (Conv2D)        (None, 576, 768, 64)      1792      
_________________________________________________________________
block1_conv2 (Conv2D)        (None, 576, 768, 64)      36928     
_________________________________________________________________
block1_pool (MaxPooling2D)   (None, 288, 384, 64)      0         
_________________________________________________________________
block2_conv1 (Conv2D)        (None, 288, 384, 128)     73856     
_________________________________________________________________
block2_conv2 (Conv2D)        (None, 288, 384, 128)     147584    
_________________________________________________________________
block2_pool (MaxPooling2D)   (None, 144, 192, 128)     0         
_________________________________________________________________
block3_conv1 (Conv2D)        (None, 144, 192, 256)     295168    
_________________________________________________________________
block3_conv2 (Conv2D)        (None, 144, 192, 256)     590080    
_________________________________________________________________
block3_conv3 (Conv2D)        (None, 144, 192, 256)     590080    
_________________________________________________________________
block3_pool (MaxPooling2D)   (None, 72, 96, 256)       0         
_________________________________________________________________
block4_conv1 (Conv2D)        (None, 72, 96, 512)       1180160   
_________________________________________________________________
block4_conv2 (Conv2D)        (None, 72, 96, 512)       2359808   
_________________________________________________________________
block4_conv3 (Conv2D)        (None, 72, 96, 512)       2359808   
_________________________________________________________________
block4_pool (MaxPooling2D)   (None, 36, 48, 512)       0         
_________________________________________________________________
block5_conv1 (Conv2D)        (None, 36, 48, 512)       2359808   
_________________________________________________________________
block5_conv2 (Conv2D)        (None, 36, 48, 512)       2359808   
_________________________________________________________________
block5_conv3 (Conv2D)        (None, 36, 48, 512)       2359808   
_________________________________________________________________
block5_pool (MaxPooling2D)   (None, 18, 24, 512)       0         
_________________________________________________________________
flatten (Flatten)            (None, 221184)            0         
_________________________________________________________________
dense_1 (Dense)              (None, 200)               44237000  
_________________________________________________________________
dense_2 (Dense)              (None, 1)                 201       
=================================================================
Total params: 58,951,889
Trainable params: 44,237,201
Non-trainable params: 14,714,688
_________________________________________________________________
Train model
-----------------------------------------------------------------
Train Data: (914, 576, 768, 3)
-----------------------------------------------------------------
…
