…
 1011        0   97.9427  4726.81        255         0
 1012        0  100.109   4760.89        255         0
 1013        0   98.7101  4755.38        255         0
 1014        0   97.5131  4670.41        255         0
 1015        0  101.113   4747.34        255         0
 1016        0  103.738   4800.11        255         0
------------------------------------
Model Summary
_________________________________________________________________
Layer (type)                 Output Shape              Param #   
=================================================================
block1_conv1 (Conv2D)        (None, 288, 384, 64)      1792      
_________________________________________________________________
block1_conv2 (Conv2D)        (None, 288, 384, 64)      36928     
_________________________________________________________________
block1_pool (MaxPooling2D)   (None, 144, 192, 64)      0         
_________________________________________________________________
block2_conv1 (Conv2D)        (None, 144, 192, 128)     73856     
_________________________________________________________________
block2_conv2 (Conv2D)        (None, 144, 192, 128)     147584    
_________________________________________________________________
block2_pool (MaxPooling2D)   (None, 72, 96, 128)       0         
_________________________________________________________________
block3_conv1 (Conv2D)        (None, 72, 96, 256)       295168    
_________________________________________________________________
block3_conv2 (Conv2D)        (None, 72, 96, 256)       590080    
_________________________________________________________________
block3_conv3 (Conv2D)        (None, 72, 96, 256)       590080    
_________________________________________________________________
block3_pool (MaxPooling2D)   (None, 36, 48, 256)       0         
_________________________________________________________________
block4_conv1 (Conv2D)        (None, 36, 48, 512)       1180160   
_________________________________________________________________
block4_conv2 (Conv2D)        (None, 36, 48, 512)       2359808   
_________________________________________________________________
block4_conv3 (Conv2D)        (None, 36, 48, 512)       2359808   
_________________________________________________________________
block4_pool (MaxPooling2D)   (None, 18, 24, 512)       0         
_________________________________________________________________
block5_conv1 (Conv2D)        (None, 18, 24, 512)       2359808   
_________________________________________________________________
block5_conv2 (Conv2D)        (None, 18, 24, 512)       2359808   
_________________________________________________________________
block5_conv3 (Conv2D)        (None, 18, 24, 512)       2359808   
_________________________________________________________________
block5_pool (MaxPooling2D)   (None, 9, 12, 512)        0         
_________________________________________________________________
flatten (Flatten)            (None, 55296)             0         
_________________________________________________________________
dense_1 (Dense)              (None, 1000)              55297000  
_________________________________________________________________
dense_2 (Dense)              (None, 1)                 1001      
=================================================================
Total params: 70,012,689
Trainable params: 55,298,001
Non-trainable params: 14,714,688
_________________________________________________________________
Train model
-----------------------------------------------------------------
Train Data: (914, 288, 384, 3)
-----------------------------------------------------------------
…
